…
               target_model_update=settings['train']['update_rate'], policy=policy, enable_dueling_network=True)
dqn.compile(Adam(lr=settings['train']['learning_rate']), metrics=['mse'])
</code></pre>
<p>Doing this results in an updated network architecture - as expected. The issue now is that when I try to call this fitted new network, the original create model function can't accept the saved model weights because the layer architecture doesn't fit at all.</p>
<pre><code>print(model.summary())

Layer (type)                 Output Shape              Param #   
=================================================================
flatten_49 (Flatten)         (None, 106)               0         
_________________________________________________________________
dense_147 (Dense)            (None, 128)               13696     
_________________________________________________________________
activation_145 (Activation)  (None, 128)               0         
_________________________________________________________________
dense_148 (Dense)            (None, 64)                8256      
_________________________________________________________________
dropout_49 (Dropout)         (None, 64)                0         
_________________________________________________________________
activation_146 (Activation)  (None, 64)                0         
_________________________________________________________________
dense_149 (Dense)            (None, 3)                 195       
_________________________________________________________________
activation_147 (Activation)  (None, 3)                 0         
=================================================================
Total params: 22,147
Trainable params: 22,147
Non-trainable params: 0

print(dqn.model.summary())
_________________________________________________________________
Layer (type)                 Output Shape              Param #   
=================================================================
flatten_49_input (InputLayer (None, 1, 1, 106)         0         
_________________________________________________________________
flatten_49 (Flatten)         (None, 106)               0         
_________________________________________________________________
dense_147 (Dense)            (None, 128)               13696     
_________________________________________________________________
activation_145 (Activation)  (None, 128)               0         
_________________________________________________________________
dense_148 (Dense)            (None, 64)                8256      
_________________________________________________________________
dropout_49 (Dropout)         (None, 64)                0         
_________________________________________________________________
activation_146 (Activation)  (None, 64)                0         
_________________________________________________________________
dense_149 (Dense)            (None, 3)                 195       
_________________________________________________________________
dense_150 (Dense)            (None, 4)                 16        
_________________________________________________________________
lambda_3 (Lambda)            (None, 3)                 0         
=================================================================
Total params: 22,163
Trainable params: 22,163
Non-trainable params: 0
_________________________________________________________________
</code></pre>
<p>So without training a new dqn, I need to find a way to create a network architecture that is created off the original architecture but applies dqn model changes.</p>
",7756491,,,,,2020-12-05 13:37:11,Dueling DQN updates model architecture and causes issues,<reinforcement-learning><dqn><keras-rl>,1,0,,,,CC BY-SA 4.0,
…
The model summary is below so you can see there are 2 output layers.</p>
<pre><code>Model: &quot;model_1&quot;
__________________________________________________________________________________________________
 Layer (type)                   Output Shape         Param #     Connected to                     
==================================================================================================
 input_2 (InputLayer)           [(None, 1, 15, 15)]  0           []                               
                                                                                                  
 conv2d_2 (Conv2D)              (None, 12, 13, 13)   120         ['input_2[0][0]']                
                                                                                                  
 conv2d_3 (Conv2D)              (None, 10, 11, 3)    354         ['conv2d_2[0][0]']               
                                                                                                  
 flatten_1 (Flatten)            (None, 330)          0           ['conv2d_3[0][0]']               
                                                                                                  
 dropout_1 (Dropout)            (None, 330)          0           ['flatten_1[0][0]']              
                                                                                                  
 dense_2 (Dense)                (None, 15)           4965        ['dropout_1[0][0]']              
                                                                                                  
 dense_3 (Dense)                (None, 15)           4965        ['dropout_1[0][0]']              
                                                                                                  
==================================================================================================
Total params: 10,404
Trainable params: 10,404
Non-trainable params: 0
__________________________________________________________________________________________________
…
FailedPreconditionError: Could not find variable dense_5_1/kernel. This could mean that the variable has been deleted. In TF1, it can also mean the variable is uninitialized. Debug info: container=localhost, status=Not found: Resource localhost/dense_5_1/kernel/class tensorflow::Var does not exist.
     [[{{node ReadVariableOp_21}}]]
</code></pre>
<p>The actor and critic networks are as follows:</p>
<pre><code>ACTOR NETWORK
Model: &quot;sequential&quot;
_________________________________________________________________
Layer (type)                 Output Shape              Param #   
=================================================================
flatten (Flatten)            (None, 10)                0         
_________________________________________________________________
dense (Dense)                (None, 32)                352       
_________________________________________________________________
activation (Activation)      (None, 32)                0         
_________________________________________________________________
dense_1 (Dense)              (None, 32)                1056      
_________________________________________________________________
activation_1 (Activation)    (None, 32)                0         
_________________________________________________________________
dense_2 (Dense)              (None, 32)                1056      
_________________________________________________________________
activation_2 (Activation)    (None, 32)                0         
_________________________________________________________________
dense_3 (Dense)              (None, 10)                330       
_________________________________________________________________
activation_3 (Activation)    (None, 10)                0         
=================================================================
Total params: 2,794
Trainable params: 2,794
Non-trainable params: 0
_________________________________________________________________
None
</code></pre>
<pre><code>CRITIC NETWORK
Model: &quot;model&quot;
__________________________________________________________________________________________________
Layer (type)                    Output Shape         Param #     Connected to                     
==================================================================================================
observation_input (InputLayer)  [(None, 1, 10)]      0                                            
__________________________________________________________________________________________________
action_input (InputLayer)       [(None, 10)]         0                                            
__________________________________________________________________________________________________
flatten_1 (Flatten)             (None, 10)           0           observation_input[0][0]          
__________________________________________________________________________________________________
concatenate (Concatenate)       (None, 20)           0           action_input[0][0]               
                                                                 flatten_1[0][0]                  
__________________________________________________________________________________________________
dense_4 (Dense)                 (None, 32)           672         concatenate[0][0]                
__________________________________________________________________________________________________
activation_4 (Activation)       (None, 32)           0           dense_4[0][0]                    
__________________________________________________________________________________________________
dense_5 (Dense)                 (None, 32)           1056        activation_4[0][0]               
__________________________________________________________________________________________________
activation_5 (Activation)       (None, 32)           0           dense_5[0][0]                    
__________________________________________________________________________________________________
dense_6 (Dense)                 (None, 32)           1056        activation_5[0][0]               
__________________________________________________________________________________________________
activation_6 (Activation)       (None, 32)           0           dense_6[0][0]                    
__________________________________________________________________________________________________
dense_7 (Dense)                 (None, 1)            33          activation_6[0][0]               
__________________________________________________________________________________________________
activation_7 (Activation)       (None, 1)            0           dense_7[0][0]                    
==================================================================================================
Total params: 2,817
Trainable params: 2,817
Non-trainable params: 0
__________________________________________________________________________________________________
None
</code></pre>
<p>Here is the code for DDPG agent</p>
<pre><code># Create DDPG agent
ddpgAgent = DDPGAgent(
…
